Omega2020/model1.pth (torch_old, 241814 bytes, 10 tensors)

conv1.weight f4 [6, 1, 3, 3]
000000 33 7b 82 3e 99 a7 8d 3e 14 ee 9f bd bd c6 9c 3e
       0.2548462 0.2766693 -0.07809082 0.30620375
000010 20 93 95 bd 7c c1 89 3d 0b 2e 26 be 8a 75 48 3e
       -0.073034525 0.06726357 -0.16228501 0.19576088
000020 33 73 96 3e 68 69 7a be c3 57 94 3e e8 88 7f 3d
       0.29384765 -0.24454272 0.28973207 0.062386423
000030 1a 2e 7c 3e 68 e8 38 3d 3e 96 24 3e d8 c5 40 bd
       0.24626961 0.045143515 0.16072938 -0.04706368
000040 85 90 83 3e f8 ce 49 3d 18 59 1f be b4 02 ae 3d
       0.25696197 0.049269646 -0.1556133 0.08496609
000050 c8 43 1d be d8 1d 20 bd a8 a2 0a be 3e 6e 62 3e
       -0.15357888 -0.03909096 -0.13538611 0.22112367
000060 1c b8 86 be b3 5b 1d be 90 c4 c0 bd fe 3b 4d be
       -0.2631234 -0.15367012 -0.09412491 -0.20042416
000070 48 dd 00 3d 5c 90 a8 be 71 21 9a 3e d6 f9 90 be
       0.03146103 -0.32922637 0.3010364 -0.2831561
000080 65 c2 83 3e b8 37 63 3d 3c aa dd bd 4a ed 52 3e
       0.2573425 0.05547306 -0.10823485 0.20598331
000090 c8 c9 54 3d 75 e4 89 3e 00 42 15 3d 76 4b d7 bd
       0.051950246 0.2693211 0.036439896 -0.1051244
0000a0 e0 6b b7 3d 0c 20 b9 bd 18 a7 0f 3e ff 5f 98 3e
       0.089561224 -0.090393156 0.14028585 0.2976074
0000b0 9e 4f 45 3e b8 38 15 be 2a 0a 45 3e 40 4b 74 3d
       0.19268653 -0.14572418 0.19242159 0.059642076
0000c0 4e 57 2d 3e 5e 0b 50 be c3 f1 a8 be b3 e0 03 be
       0.16927835 -0.20316836 -0.3299695 -0.12878685
0000d0 be e7 82 be e5 09 8c 3e
       -0.2556743 0.273513

conv1.bias f4 [6]
000000 20 a1 c4 3d 88 62 0d 3e a4 e6 d7 3d c0 02 be bb
       0.09601045 0.13807118 0.10542038 -0.0057986677
000010 ad 90 85 3e a0 85 72 be
       0.2608694 -0.23683786

conv2.weight f4 [16, 6, 3, 3]
000000 f0 61 0c 3c e5 38 be bd b4 df 2b 3d fc f4 3f bd
       0.008568272 -0.092881955 0.041961387 -0.046864495
000010 80 cb 2a 3d cc 41 e8 bc 42 26 e7 3d 3e 2f a5 bd
       0.04169798 -0.028351687 0.11286594 -0.08065651
000020 f2 36 a6 bd 84 39 a6 bd 28 ac fa 3d a4 c0 39 3d
       -0.08115949 -0.08116439 0.122398674 0.045349732
000030 a4 16 06 3e a0 00 e6 bd 7a 37 0a be f7 0a da bd
       0.13094574 -0.11230588 -0.13497725 -0.10646623
000040 0e 7a bb bd 70 c4 61 3d f8 96 47 3d 9a 93 e7 3d
       -0.091541395 0.055118978 0.04872796 0.1130745
000050 2d ed 8f bd cb fd bd bd ee de 93 3d 34 4d 61 bd
       -0.070276596 -0.09276923 0.07220255 -0.055005267
000060 ee 25 a9 3d 2c 45 04 bd 82 6d 9f 3d ff 89 d8 bd
       0.08259188 -0.03229253 0.07784559 -0.10573196
000070 07 a5 8c bd c4 ef 29 3d d0 ac eb 3c dc 1c 0e bd
       -0.06867414 0.041488424 0.028768927 -0.03469549
000080 82 1f a6 3d 0c 76 bd 3d a0 1a ca bd a9 c9 94 bd
       0.081114784 0.09251031 -0.098683596 -0.07265026
000090 54 31 ff 3d 4c 15 3c bd 0e 9b 45 bd 46 d5 06 be
       0.124605805 -0.045918748 -0.048243575 -0.13167295
0000a0 0d 9a 9f bd 44 3d 0b 3d 08 25 93 bc 78 4d ca bd
       -0.07793055 0.033993974 -0.017961994 -0.09878057
0000b0 c0 31 51 3b 84 5f be bd 30 72 ec bd e3 77 99 bd
       0.0031920522 -0.09295562 -0.11545217 -0.0749357
0000c0 60 eb f3 bd 12 75 b1 bd 54 4b 0b 3e 50 8e d2 3c
       -0.119101286 -0.086649075 0.13602954 0.025702626
0000d0 44 c4 2b 3d e9 f7 01 be 8e 0a b7 bd 3c 88 39 bd
       0.04193522 -0.12692226 -0.0893756 -0.04529594
0000e0 28 52 ae 3c 5c 3b f5 bd 9e 2a 70 bd f2 d8 a6 bd
       0.02127941 -0.119742125 -0.058634393 -0.08146848
0000f0 00 b8 c5 39 92 68 4f bd 20 80 1a bc 8d da bc bd
       0.0003771186 -0.050636835 -0.009429961 -0.09221373
000100 f0 4b bf bd b6 97 a2 bd 7e cb 3e bd 7a f8 db bd
       -0.09340656 -0.07939093 -0.046580784 -0.107407525
000110 f0 ad e9 3d e8 3e dd bc 58 ca ef 3d a0 ac 2d 3d
       0.11410129 -0.027007535 0.11708516 0.042400956
000120 0e 00 ec bd 56 de c0 3d 46 5d 19 bd fe a9 55 bd
       -0.11523448 0.09417407 -0.037442468 -0.05216407
000130 ad 56 e7 bd f9 88 0a be 04 7a 1f 3d e0 84 f3 bc
       -0.11295829 -0.13528813 0.038934723 -0.029726446
000140 bc 01 59 3d 84 b7 e4 bd c4 e9 ce 3d 36 94 cc bd
       0.05298017 -0.11167815 0.10103181 -0.099892065
000150 98 7e c0 bc 88 d8 e8 3c ca e0 8f 3d d2 fe e0 3d
       -0.023497865 0.028423563 0.07025297 0.10986103
000160 d0 e1 fd 3d 45 fc dc bd 30 47 0c 3d 04 c0 6f bd
       0.12396586 -0.10790304 0.034247577 -0.05853273
000170 00 54 74 bc 32 9a d0 bd a0 da fd 3d d8 8c cc bd
       -0.014912605 -0.101856604 0.12395215 -0.09987801
000180 42 f3 94 3d 04 e4 43 3d fc 20 35 3d 3f ad 96 bd
       0.0727296 0.047824875 0.04422091 -0.07357263
000190 90 52 fd 3d c0 f9 f4 3c 18 68 8f 3c 80 9a f5 bd
       0.12369263 0.029904246 0.01750569 -0.11992359
0001a0 f0 fc 69 3d d0 3d a7 bc 30 5b 7f bd e4 62 ef 3d
       0.057125986 -0.020415217 -0.062342823 0.11688784
0001b0 88 8a f8 3c 5f 32 9a bd 46 0f 8d bd 40 f3 d4 bb
       0.030339494 -0.07529139 -0.06887679 -0.006498724
0001c0 28 9d 9b 3d ec 6e 0e bd 8e 04 9f bd 3e e0 3e bd
       0.075983346 -0.034773752 -0.077645406 -0.046600573
0001d0 39 35 d0 bd 00 c9 46 3d 1c b9 d7 3d 44 30 03 be
       -0.101664014 0.048531532 0.10533354 -0.1281138
0001e0 94 74 01 3d 0c f9 8f 3d e8 24 ca 3c 8a 80 46 bd
       0.03160532 0.07029924 0.024675801 -0.04846243
0001f0 c8 76 91 3d 8e 75 92 3d d8 6c 50 3d 78 e4 c3 bc
       0.07102734 0.07151328 0.05088505 -0.023912653
000200 52 99 13 bd c0 85 6e 3c a8 ee c4 bc b4 1a 26 bd
       -0.03603489 0.014558256 -0.024039581 -0.04055281
000210 36 25 b2 3d 34 83 ef 3d f8 b8 5c bc 14 99 f9 bc
       0.08698504 0.11694947 -0.013471834 -0.030468501
000220 80 23 02 3b d0 1f 05 bc 08 01 06 3d 68 33 1c 3d
       0.0019857585 -0.0081252605 0.032715827 0.038134962
000230 00 21 fd bd 26 b3 4d bd 0c b3 ea 3d d0 22 59 3d
       -0.1235981 -0.050219677 0.11459932 0.053011715
000240 a0 c9 dd bb 40 07 a8 bd 30 82 aa bd e3 a5 f9 bd
       -0.0067684203 -0.08204508 -0.083256125 -0.121898435
000250 98 b0 35 bd 10 3c 3c 3d 1c b4 b1 3d 84 ac 80 3d
       -0.044357866 0.045955718 0.08676931 0.06282905
000260 5e 5a f6 bd 25 99 a7 bd b4 ee af bc 88 cc 06 3e
       -0.12028955 -0.08183507 -0.021476127 0.1316396
000270 40 43 a1 3c 58 59 10 bd 54 9a 66 3d 2e 4d 54 bd
       0.019685388 -0.035241455 0.056299523 -0.051831417
000280 78 63 b4 bd f2 6a cb 3d d2 72 7d bd 74 7a df bc
       -0.08808035 0.099325076 -0.06187708 -0.02728007
000290 ef 9f 0a be 28 86 ba 3d a0 26 d3 3d 40 24 4b 3d
       -0.13537572 0.091076195 0.103101015 0.049595118
0002a0 1e 54 c2 bd 63 87 09 be 2e 5a e2 bd 26 d3 cf 3d
       -0.094887 -0.13430552 -0.11052357 0.10147695
0002b0 e6 cd 85 3d 74 86 ea 3d 50 00 92 3d 84 12 0d 3d
       0.06533413 0.11451426 0.07128966 0.034441486
0002c0 00 ab ae ba 7e f3 d3 bd c0 c7 ee bd f4 56 02 be
       -0.0013326108 -0.10349177 -0.11659193 -0.12728482
0002d0 24 2d 64 3d e1 d4 88 bd b8 5a e0 bc 52 64 a0 bd
       0.055707112 -0.066812284 -0.027387008 -0.078316346
0002e0 18 24 cb bc 33 28 c4 bd f6 1a b6 bd dc e4 38 3d
       -0.024797484 -0.0957798 -0.08891861 0.045140132
0002f0 e2 a7 25 bd 50 0d ac 3d 34 d1 32 bd 80 71 cc bd
       -0.04044331 0.08400977 -0.043656543 -0.09982586
000300 40 b1 c4 bc 10 19 87 bd c2 87 2a bd cf a8 04 be
       -0.0240103 -0.06596577 -0.041633375 -0.1295502
000310 c0 ed 9b 3d cd 07 c2 bd 0c 14 8c 3d e4 ef 7c 3d
       0.076137066 -0.09474144 0.06839761 0.061752215
000320 52 1c c7 3d 87 c6 d5 bd 38 70 c8 3d 34 c1 83 bd
       0.097221985 -0.10438257 0.09787029 -0.06433335
000330 04 d5 4e 3d 4e dd 02 3e 8c 38 9d bc 80 f0 89 ba
       0.050496116 0.12779734 -0.019192003 -0.0010523945
000340 52 54 00 bd 47 b5 e8 bd 6c bf 85 3d 81 55 0a be
       -0.031330414 -0.11362701 0.065306515 -0.1350918
000350 f0 03 ad 3d 4a 87 d0 3d 74 c8 03 3e 64 7a 03 bd
       0.08448017 0.10182054 0.12869436 -0.032099143
000360 54 fd e4 bd 78 a3 fa 3c ca f5 99 3d ee b1 0a be
       -0.11181131 0.030595526 0.07517584 -0.13544437
000370 04 0a fd bc 16 11 a7 bd e8 01 43 bc be 2d 89 bd
       -0.030888565 -0.08157556 -0.01190231 -0.06698178
000380 52 d8 63 bd 32 f3 30 bd 77 6c 04 be 64 ac e4 3d
       -0.05562622 -0.04320068 -0.12932001 0.111656934
000390 0c a4 e9 3d 44 e0 ae bc c0 e8 7d bc e8 7b 63 bd
       0.114082426 -0.021347173 -0.015497386 -0.055538088
0003a0 6e ae fb bd 41 9b 07 be 1c 29 4f 3d 8e 04 99 bd
       -0.12289129 -0.13242818 0.050576314 -0.07471572
0003b0 10 2b b3 bd 80 f5 2d bc 66 9e 39 bd 30 54 34 bd
       -0.08748448 -0.010617614 -0.045317076 -0.0440256
0003c0 40 47 8f 3b f8 75 ec bc 04 eb 3f bd 28 71 85 bd
       0.0043725073 -0.028864846 -0.046854988 -0.065157235
0003d0 ca cf e2 bd 9c b0 e9 3d f4 0f 5f bd c0 b2 13 3d
       -0.11074789 0.11410639 -0.054458573 0.03605914
0003e0 a6 65 41 bd b0 2d 35 3c 38 ea 01 3e fa 66 80 3d
       -0.04721608 0.011058256 0.12687004 0.06269641
0003f0 e8 84 f1 bd 4c 3b 5d 3d 9c 46 04 3e 30 a4 12 3d
       -0.11792928 0.054011628 0.1291756 0.035801113

conv2.bias f4 [16]
000000 94 dc 07 3e 22 93 2b bd b2 af 2f bd 4c 24 a8 3d
       0.13267738 -0.041888364 -0.042892165 0.08210048
000010 98 ed 4c bd 78 78 3f bc 84 1d 02 3e 70 84 64 bd
       -0.050031275 -0.011686437 0.12706572 -0.055790365
000020 10 62 c7 bd a8 f8 9b bd 0c 89 1a bd db 3d 84 bd
       -0.09735501 -0.07615787 -0.037728354 -0.064571105
000030 ff 9f 90 bd 1c 28 61 3d e8 71 bd 3c 96 66 32 bd
       -0.07061767 0.054969892 0.023125604 -0.043554865

fc1.weight f4 [120, 400]
000000 88 1c 1f bd 74 f7 80 bc 03 de ac bc a6 4a 85 bc
       -0.03884557 -0.015742995 -0.021101957 -0.016270947
000010 3a c1 38 bd c0 7a 30 3c ad 78 16 bd 82 7f 1f bd
       -0.04510615 0.010771453 -0.03673618 -0.03893996
000020 12 54 27 bd da f5 aa 3c 13 97 f6 bc 10 10 a9 bc
       -0.04085166 0.020869184 -0.030101335 -0.020637542
000030 d3 87 20 3d a2 7b d9 3c 6e dc ea 3c 7d 75 42 bd
       0.039192032 0.02654821 0.028669562 -0.047475327
000040 ae dc 12 bd e7 a0 9a bc 4f 2f 29 3d e8 9b a7 3b
       -0.035854988 -0.018875552 0.041304883 0.005115021
000050 5a 2b 19 bd 80 26 a4 39 eb 0f 1f bd 74 7c 33 bc
       -0.03739486 0.00031309202 -0.03883354 -0.010954965
000060 74 42 61 bc 99 49 31 3d 84 bc 7d 3c 48 d8 0e bc
       -0.013748754 0.04328308 0.01548684 -0.008718558
000070 ec 62 0a 3c 8c 79 6c bc 96 ee a0 3c e2 05 a2 3c
       0.008446436 -0.014433276 0.019645017 0.019778196
000080 34 fe 5b 3c 13 a7 9f bc ab b9 2e 3d 28 89 ec bb
       0.013427306 -0.019488847 0.042657536 -0.0072184987
000090 d0 76 9f bc e5 44 00 3d 71 ec 26 3d 09 cf 4b 3d
       -0.019465834 0.031315703 0.04075283 0.04975799
0000a0 e4 b1 72 3c 50 a1 8b bc 56 08 d0 3c 87 b5 2f 3d
       0.01481292 -0.017044693 0.0253946 0.042897727
0000b0 f5 df 48 bd f0 f9 ca bb a2 aa 0b bd 78 aa 18 3c
       -0.049041707 -0.0061943457 -0.034098275 0.009317987
0000c0 82 67 a9 3c a0 3c 29 bc 58 10 89 bb 8a 5d b8 3c
       0.02067924 -0.0103293955 -0.0041828565 0.02250554
0000d0 c8 ae 09 bc a2 fc 2b bd 2b de 23 3d 5a 28 ce bc
       -0.0084034875 -0.041988976 0.040006798 -0.025165725
0000e0 00 fe b3 bb 58 8b 9a 3b e0 ec 44 bb 0a a7 40 bd
       -0.0054929256 0.004716318 -0.0030048415 -0.0470343
0000f0 aa ec bb 3c a0 0d ba bc 67 71 d4 bc 34 b8 43 3c
       0.022939999 -0.022711575 -0.02593298 0.011945773
000100 33 c1 d5 bc f3 4c bd bc c4 03 8a bc a7 e0 99 bc
       -0.026093101 -0.023107981 -0.016847499 -0.01878388
000110 77 10 ab bc 38 ed 5c bc e4 e3 54 3c 53 ba 25 bd
       -0.020881874 -0.013484292 0.0129937865 -0.040460896
000120 3d ec f7 bc c0 40 3f 3a 68 d9 e3 3b 12 38 e2 3c
       -0.030264014 0.000729572 0.006953407 0.027614627
000130 4b dc 0f bd 3a be 82 3c fe cf e8 3c 42 6f e3 3c
       -0.035122197 0.015959848 0.02841949 0.027763013
000140 50 c1 3e bd 1a 4e 9c bc ff 09 30 bd 8c 99 01 bd
       -0.046571076 -0.01908021 -0.042978283 -0.031640574
000150 e2 23 e4 3c f0 a4 f4 bb 36 f6 ad 3c 13 70 f0 bc
       0.027849142 -0.007465951 0.021235567 -0.029350316
000160 98 f8 f8 3b f3 bf f7 bc 7a c1 cc 3c 83 26 b3 bc
       0.007597994 -0.030242896 0.0249946 -0.02186895
000170 00 6c 4d bc df b0 31 bd 00 33 2d 39 1b 74 42 3d
       -0.012537956 -0.043381568 0.00016517565 0.047474008
000180 96 cf c6 3c d3 89 da bc 80 46 30 3a e8 a5 b3 bb
       0.024268907 -0.026677048 0.00067243725 -0.005482424
000190 13 e1 24 bd f5 94 20 3d 00 4c 53 3a 68 85 2c 3c
       -0.04025371 0.039204556 0.0008060336 0.010529853
0001a0 8a 68 a5 bc e0 a8 bf bc d8 13 07 3c 02 6f 97 3c
       -0.02019145 -0.023395956 0.008244477 0.01848555
0001b0 b4 be 37 3c 9a 67 c5 bc 01 d7 46 3d 00 2e f1 bb
       0.011214901 -0.024097253 0.048544887 -0.00736022
0001c0 60 d8 fa bc 3a 93 bf bc 01 9c 49 3d 00 80 21 36
       -0.030620754 -0.023385633 0.049221043 2.4065375e-06
0001d0 40 67 de bb ba 75 aa bc e0 bf 56 bc 08 7d 2c bd
       -0.0067872107 -0.02080809 -0.01310727 -0.042111427
0001e0 4d c0 22 bd 0e bc ef 3c 31 32 2f 3d d3 70 43 3d
       -0.039734174 0.029264476 0.042772476 0.04771502
0001f0 92 da 13 bd a2 89 dd 3c 5a 87 fd bc e2 59 f4 3c
       -0.036097117 0.027043168 -0.03094833 0.029828016
000200 39 c6 13 3d 21 7d 1e 3d 6d 77 13 3d 0f 1e 00 3d
       0.03607771 0.03869355 0.036002565 0.031278666
000210 40 1d 7f 3a 3a 34 bc 3c 00 8b 92 bc a6 5a b2 3c
       0.00097318366 0.022974122 -0.017888546 0.02177174
000220 70 a5 83 bc 80 16 5c ba eb 40 32 bd 34 33 56 bc
       -0.016070098 -0.0008395687 -0.04351894 -0.013073731
000230 c7 65 d7 bc a6 2a 8a bc 54 c8 02 bd c8 34 38 bd
       -0.026293648 -0.01686604 -0.03192933 -0.04497221
000240 b0 5f 55 3b 33 e9 04 3d 81 85 3a 3d 16 06 ef 3c
       0.0032558255 0.03244896 0.045537475 0.029177707
000250 9d 4f d4 bc 98 8c 4a bd f2 5d 9b 3c 2e 81 e5 3c
       -0.025916869 -0.049450487 0.018965695 0.0280157
000260 c2 d2 2f bd 7a e0 92 3c 5b 27 2d 3d 50 7f 46 3b
       -0.042925604 0.017929304 0.04227386 0.0030288287
000270 63 c4 f6 bc 21 e9 27 3d de e7 ae 3c 69 9e 07 3d
       -0.030122941 0.040993813 0.021350797 0.033110056
000280 d6 80 0a bd 6a 5d ee 3c bc e4 0b bd 01 a6 4a 3d
       -0.033814274 0.029097278 -0.034153685 0.04947472
000290 23 8c ad bc be cf f6 3c b4 09 24 3c bc 18 59 3c
       -0.021184986 0.030128356 0.010012079 0.013250526
0002a0 c0 41 fb bb ba 3c a8 3c b3 b5 aa bc 4d 0a 41 bd
       -0.00766775 0.02053677 -0.020838594 -0.047128964
0002b0 9d 5e 9d bc fd 77 20 3d a8 ab 57 bc ae be 80 3c
       -0.019210154 0.03917693 -0.013163485 0.015715923
0002c0 a0 70 97 bc 6d a1 19 3d 42 24 f5 3c 2a 98 90 3c
       -0.018486321 0.037507463 0.029924516 0.017650682
0002d0 30 5f d1 bc 23 59 27 bd 40 bd f6 3a 87 4b f0 bc
       -0.025558084 -0.04085649 0.0018824711 -0.02933289
0002e0 a1 62 28 3d cf ce 44 bd 8a 09 b7 3c 01 2b 4c 3d
       0.041109685 -0.04804879 0.022343416 0.0498457
0002f0 aa 23 cd 3c 36 aa 8b 3c 32 0c 45 bd e9 fe 44 3d
       0.02504142 0.017048936 -0.048107333 0.048094664
000300 48 1f 0c bc ea 5d 3f bd c3 2b 4a 3d c7 ad a6 bc
       -0.00855238 -0.046720423 0.04935814 -0.020346535
000310 60 d3 67 bb 01 73 3b 3d ae f7 0d bd da e4 10 bd
       -0.0035373792 0.045763973 -0.034660034 -0.0353745
000320 54 37 05 3c 68 4e db bb 2c b2 3c 3c 50 c4 2b bd
       0.008130867 -0.0066926964 0.011517089 -0.041935265
000330 00 ff c3 3a 70 2c b6 bc ed 5c c9 bc bf 85 3b bd
       0.0014953315 -0.022237986 -0.024580443 -0.045781847
000340 6e 2d d9 3c cc ce 1d 3c 93 25 2d bd f9 84 22 3d
       0.02651092 0.009631824 -0.04227216 0.039677594
000350 7c 16 77 3c 6c 03 18 3c b7 7d f0 bc 00 14 f7 3b
       0.015081044 0.00927816 -0.02935682 0.007540226
000360 41 55 45 3d 19 78 0c 3d 3b 83 1f bd 1f f2 3a 3d
       0.048177008 0.03429422 -0.03894351 0.04564106
000370 e0 fb 7d 3b da 00 c5 3c 35 10 1f 3d 09 98 2e 3d
       0.0038754866 0.024048258 0.038833816 0.04262546
000380 13 a6 1f bd 01 56 33 3d 54 18 0b bd 20 a6 75 3b
       -0.03897674 0.04378319 -0.033958748 0.0037483051
000390 56 1b 0f bd 8c 98 33 bc 20 e8 14 bb b0 02 c4 bb
       -0.03493818 -0.010961663 -0.0022721365 -0.0059817657
0003a0 f4 69 01 bc b0 38 81 3b c1 04 4a 3d 7a fb ed 3c
       -0.007898796 0.0039435253 0.04932094 0.029050577
0003b0 ae 28 e5 3c fe f0 a3 3c 63 8d 1e 3d a0 38 17 bb
       0.0279735 0.020012375 0.038709056 -0.0023074523
0003c0 d8 45 82 3b c8 96 28 3c c2 9c 32 bd 62 fa 24 bd
       0.003975611 0.010289855 -0.043606527 -0.040277846
0003d0 c0 de c8 3b 90 41 a0 bc 80 83 70 ba 00 f9 3b bc
       0.0061300695 -0.019562513 -0.00091748685 -0.01147294
0003e0 b0 09 ff 3b ff 3e 05 3d 2c d7 87 bc 29 04 24 3d
       0.0077831373 0.03253078 -0.016582094 0.04004303
0003f0 c7 b3 21 3d 02 2f 1d bd e5 26 1e bd d3 b2 25 bd
       0.03947809 -0.03837491 -0.03861131 -0.040453743

fc1.bias f4 [120]
000000 a1 bd 23 3d 34 04 58 bc 90 cf f4 bc e3 f3 fd bc
       0.039975766 -0.013184596 -0.02988413 -0.031000083
000010 06 53 ff 3c af ba 34 3d 57 57 0c 3d 42 bc 41 bd
       0.031167518 0.044123348 0.03426298 -0.047298677
000020 80 21 4d ba 00 b3 ea 3b a9 d1 14 3d bd 55 cc bc
       -0.0007825121 0.0071624517 0.03633276 -0.024943227
000030 f0 4b b4 bc 68 8f b3 bb e8 5d 15 bc 28 9b d8 3b
       -0.022008866 -0.005479742 -0.009116627 0.006610293
000040 e0 a5 9c bc 14 fd 41 bc da 20 07 bd e3 4c 35 3d
       -0.019122064 -0.011840124 -0.032990314 0.044262778
000050 2c ab 6c bc b0 19 d3 bc 3d 73 24 bd 1d 47 01 bd
       -0.014445107 -0.025769085 -0.040148962 -0.03156196
000060 3a ee e8 3c b3 fb 08 3d 90 1a f5 3b b2 fb 35 bd
       0.028433908 0.033443164 0.007479973 -0.04442949
000070 f8 47 43 bd d4 eb 94 bc 74 6e 8b bc 6d 86 9b bc
       -0.047676057 -0.018178858 -0.017020442 -0.018984998
000080 66 41 85 bc 50 cb e4 bc a5 0c 0f bd 50 35 66 3b
       -0.016266536 -0.027928978 -0.03492417 0.0035126992
000090 8d db 23 bd ce b2 01 bd 40 a4 cf ba 60 f7 ca 3a
       -0.0400043 -0.031664662 -0.0015841797 0.00154851
0000a0 f5 c1 32 3d d0 9d 61 bb 6d ab 00 3d 90 e2 b2 bb
       0.043642003 -0.003442634 0.031413484 -0.0054591373
0000b0 4a 5c c2 3c a0 74 12 bc 82 bf d1 3c 96 ef e2 3c
       0.023725647 -0.008938938 0.025604013 0.027702134
0000c0 da 20 45 bd 60 05 9e 3a 00 93 89 3a ec 7e 1c 3c
       -0.048127033 0.0012056045 0.001049608 0.009551745
0000d0 1a 4e 41 bd 5a e8 4a bd 63 bc 23 bd 00 82 9a bb
       -0.047193624 -0.049537994 -0.03997458 -0.0047152042
0000e0 09 2f 0d 3d 70 be e2 bc 77 8d b0 bc 73 a8 ed bc
       0.034468684 -0.027678698 -0.02155183 -0.029010987
0000f0 a2 d5 d5 3c 41 cc 16 3d 50 11 57 3b 7a 27 dc 3c
       0.026102845 0.036815885 0.0032816716 0.026874293
000100 23 a2 3c 3d b0 a3 e3 bb 63 cd ad bc 47 2e ea bc
       0.046053063 -0.0069470033 -0.0212161 -0.02858652
000110 9f 1c 13 3d 1e d5 f7 3c c2 96 09 bd 22 f9 e9 3c
       0.035915967 0.03025299 -0.03359104 0.028561179
000120 02 69 b9 3c 8e 06 bd 3c a2 3b 8d 3c 28 01 fb bb
       0.02263308 0.023074415 0.01724035 -0.00766005
000130 b2 ff ba 3c 9d 01 02 bd 70 06 bb bb f2 72 a3 3c
       0.022827003 -0.03173982 -0.0057075545 0.019952271
000140 96 ad a0 3c 60 af ca bc bb d2 2e bd 76 f3 ca 3c
       0.019614022 -0.024741828 -0.042681437 0.024774294
000150 10 cc cc bc 6a 9e e0 3c 42 d9 41 bd c2 0b 31 bd
       -0.024999648 0.027419288 -0.047326334 -0.043224104
000160 f9 88 3e 3d 47 11 38 3d 9a db 86 bc a2 49 f3 3c
       0.046517346 0.044938352 -0.016462136 0.029698197
000170 61 66 06 3d d8 14 5a bc 01 43 20 3d 89 72 11 3d
       0.03281248 -0.013310634 0.0391264 0.03550962
000180 f1 89 46 3d a8 51 cf bb e2 3d 35 bd 10 f6 d4 bc
       0.048471395 -0.006326873 -0.04424847 -0.025996238
000190 88 b6 02 bc 83 a9 a9 bc 03 88 01 3d 2f e2 2a 3d
       -0.007978089 -0.020710712 0.03162385 0.04171961
0001a0 59 1d 1d 3d e8 0a 37 3c d7 56 bf bc a7 87 f8 bc
       0.038358066 0.011172034 -0.023356838 -0.030338122
0001b0 b0 cd c0 bb 3d 55 ea bc 69 49 23 3d 40 1c 1d bd
       -0.005883895 -0.028605098 0.03986493 -0.03835702
0001c0 1a cd 1f bd 7a f2 ed bc 75 e5 06 bd f0 8d fb bc
       -0.03901396 -0.029046286 -0.03293367 -0.03070733
0001d0 56 20 96 3c 67 b0 a9 bc 38 11 03 bd 39 66 15 3d
       0.018325966 -0.020713998 -0.031998843 0.03647444

fc2.weight f4 [84, 120]
000000 cc f7 17 bd 7e 3b a7 3d 82 bf 8c 3d 66 35 a0 3d
       -0.037101552 0.08165644 0.06872465 0.07822685
000010 f4 c5 a7 bd 6c 74 77 3d 02 4e 77 bd b0 76 e6 3c
       -0.081920534 0.060413763 -0.06037713 0.028132766
000020 0f 46 6f bd 34 62 9e 3d 0e 07 ae 3d 6e b9 74 bd
       -0.058416422 0.077335745 0.08497439 -0.059747152
000030 74 4c 0a 3d ff 27 34 bd b8 d8 2e bc ae 19 aa 3d
       0.033764318 -0.043983456 -0.010671787 0.08305679
000040 a8 16 99 3d 70 a2 9e bd f8 63 28 3d f9 5a 5c bd
       0.074750245 -0.07745826 0.041110963 -0.053797696
000050 8d d5 1e bd da f1 98 3d db e9 30 bd f0 33 e3 3c
       -0.038777877 0.074680045 -0.043191772 0.027734727
000060 bd 02 9d bd ef 0b 8c bd c4 57 b4 bd 20 a6 0e 3d
       -0.07666538 -0.06838214 -0.088058025 0.034826398
000070 42 89 98 bd 68 86 94 3d fc 9f b0 3c a2 5b 7c bd
       -0.07448055 0.072521985 0.021560661 -0.061610825
000080 58 5d aa 3d 20 f1 8f 3b e6 ff fe bc 04 2b 70 3d
       0.08318585 0.004392758 -0.031127881 0.058634773
000090 3e b2 6d bd 9e 71 65 bd 7d 35 24 bd 20 a7 8c bc
       -0.058031313 -0.056016557 -0.040090073 -0.017169535
0000a0 aa 55 81 3d 00 9e 13 3a 42 b6 66 bd 18 17 99 bd
       0.06315167 0.0005631149 -0.05632616 -0.07475108
0000b0 d0 dd 8b bb 90 93 1d 3d ec e7 b9 bd 4c 67 f2 3c
       -0.0042683855 0.038470805 -0.09077439 0.029590271
0000c0 10 19 44 3c 48 7b 02 bd 8c 22 30 3d df af 2f bd
       0.011968866 -0.03185585 0.043001696 -0.042892333
0000d0 4d ef 2e bd 06 d2 21 bd c4 dc ff 3c 00 4d 9c 3d
       -0.042708684 -0.039506935 0.031233199 0.07631874
0000e0 60 e8 37 3b 24 71 f1 3c 30 75 5c 3d 64 78 57 3d
       0.002806209 0.029472895 0.053822696 0.052605048
0000f0 01 46 92 bd 4c 38 08 bd 96 55 07 3d be d3 a9 3d
       -0.071422584 -0.033256814 0.033040605 0.0829234
000100 46 67 a5 bd c5 ef b9 bd 68 ef b4 bc bc f5 16 3d
       -0.080763385 -0.090789355 -0.022086814 0.036855444
000110 00 d9 81 3c 98 ed 01 bc ac 34 8a 3d 16 0f 77 bd
       0.015850544 -0.007930182 0.067483276 -0.06031712
000120 72 aa 34 bd a8 29 ad bc 24 d5 77 3d 0c 8d 85 bd
       -0.04410786 -0.021138027 0.060506 -0.06521043
000130 4c 85 18 3d 0e 5a ab 3d ce 0a 84 bd 64 45 65 3d
       0.037236497 0.08366786 -0.06447373 0.05597438
000140 b0 2a b7 bd ea 54 b8 3d 18 79 d7 bc 94 05 83 3d
       -0.08943689 0.09000571 -0.02630286 0.06397548
000150 14 d7 6e 3d d0 50 0d 3c e8 9a 94 3d f0 5c 6d 3d
       0.058310583 0.008625224 0.072561085 0.05794996
000160 7c 01 80 bc 16 f9 ec bc a6 f9 29 bd fc ed 80 bc
       -0.015625708 -0.028927367 -0.04149785 -0.01573848
000170 00 ac 4e 3c a0 f3 63 3b 34 a5 8f 3c 08 ca 93 3c
       0.01261425 0.0034782663 0.01753483 0.018040672
000180 10 02 a1 3d 16 b2 ac 3d a8 76 24 3d 68 68 ab 3d
       0.078617215 0.08432405 0.040152222 0.08369523
000190 2b a8 ad bd a0 fd 4b 3d f0 5b 29 bd 9a 44 98 bd
       -0.08479341 0.049802423 -0.041347444 -0.0743496
0001a0 60 45 87 bb c0 18 45 3b 08 f1 60 3c 84 5e 4d 3d
       -0.004128143 0.0030074567 0.013729341 0.050138965
0001b0 28 0c 6f 3d f8 f9 96 bc 54 d9 2b 3d 28 6e 3a bc
       0.058361202 -0.018429741 0.041955307 -0.011378802
0001c0 60 47 8d bc 35 63 a4 bd 00 78 b2 b8 e4 6a 8f 3c
       -0.017245948 -0.08026735 -8.510053e-05 0.017507024
0001d0 a0 08 19 3b 90 4b 69 bd cc 62 26 3d 30 89 08 bc
       0.0023351088 -0.056956828 0.040621564 -0.008333489
0001e0 ac 3c 72 3d 43 b6 b9 bd 3d c7 b0 bd 2b 6c 23 bd
       0.059139892 -0.09067967 -0.08631752 -0.03989808
0001f0 b8 87 8c bc 18 4a 08 3c a8 ea 7c bd 0e 6e 1e bd
       -0.01715456 0.008318447 -0.061747223 -0.038679175
000200 d4 f5 c5 3c dc 47 89 3d 0c 2f 38 3d d1 f3 a0 bd
       0.024165072 0.06703159 0.044966742 -0.07859004
000210 e0 17 38 bb 65 41 4c bd 32 ce ae 3d 15 ce 70 bd
       -0.0028090402 -0.049867053 0.085354224 -0.058790285
000220 9c 8d 8f 3c fc 34 83 3d 60 68 40 3d d8 7e 68 3d
       0.01752358 0.0640659 0.04697454 0.056761593
000230 20 60 94 3d 40 01 11 3d 8c d5 b5 3d ac 55 4b 3d
       0.07244897 0.035401583 0.088786215 0.04964225
000240 6c 90 83 3c aa 21 b3 bd b4 97 ba 3d 9a 79 2f bd
       0.016060077 -0.08746655 0.09110966 -0.042840578
000250 4e af 9d bd 50 c0 6f 3d 06 82 93 bd 34 00 e0 3c
       -0.07699452 0.058533013 -0.072025344 0.027343847
000260 98 60 fa 3c de bf 16 bd a6 06 91 3d 70 78 bb bb
       0.030563638 -0.036804073 0.07081346 -0.0057211444
000270 ab 66 b5 bd 64 fd ae bc 1a 3b 16 bd 4e d2 11 bd
       -0.08857473 -0.02136106 -0.036677457 -0.035600953
000280 cb 8e 3d bd c1 c4 83 bd c5 1d b0 bd 98 78 25 3d
       -0.046278756 -0.06434012 -0.08599428 0.04039821
000290 cd 80 9f bd 4a b2 12 bd e8 1b 4f 3c 2c 32 ab 3d
       -0.07788239 -0.03581456 0.012640931 0.08359179
0002a0 c0 8e 52 3d 7c d9 20 bd b8 1a 73 3d 6b e8 0d bd
       0.05140567 -0.03926991 0.059351653 -0.03464548
0002b0 00 78 ae 38 ae a1 fd bc d0 59 95 3c 04 80 23 3d
       8.319318e-05 -0.030960884 0.018231302 0.039917007
0002c0 e0 b7 11 bb 2c 24 4b 3d 70 83 22 bc 0f e6 55 bd
       -0.0022234842 0.049595043 -0.009919032 -0.052221354
0002d0 80 b6 70 3d 50 6c 89 3d 80 e2 c4 3c d8 c9 74 3d
       0.058767796 0.06710112 0.024033785 0.059762806
0002e0 00 9d 9b bd 00 a8 6b bd b2 d1 91 3d f0 0e 8a bd
       -0.07598305 -0.057533264 0.07120074 -0.0674113
0002f0 50 6a ad 3b d4 71 7a 3d 18 64 61 3c e8 3b d2 bc
       0.0052922145 0.06114371 0.013756774 -0.025663331
000300 d0 fd a1 bb 48 03 a9 bc d8 f3 77 bc 94 44 aa bd
       -0.004943587 -0.020631447 -0.0151338205 -0.083138615
000310 7c 50 b1 3d 25 55 5a bd 78 e7 cd 3c 7b 7d 75 bd
       0.08657929 -0.053303856 0.025134787 -0.05993412
000320 d8 62 c3 3c 40 d0 52 3b a6 e0 3c bd b8 cc 0c 3c
       0.023850843 0.0032167584 -0.04611268 0.008593731
000330 2c 05 85 bc 81 21 8a bd 5c 40 7b 3d c9 d3 a2 bd
       -0.016237818 -0.067446716 0.061340675 -0.07950551
000340 70 ec f5 3b 48 81 25 3d 00 7f df ba 1c 68 12 3d
       0.007504992 0.040406495 -0.0017051399 0.035743818
000350 20 50 97 bc 80 2a ff 3a d8 14 34 bc 0f a0 3a bd
       -0.018470824 0.0019467622 -0.010991298 -0.0455628
000360 3d 1f 94 bd 80 20 a5 bd a8 38 a4 bc be 25 76 bd
       -0.07232521 -0.080628395 -0.020046547 -0.060094588
000370 74 a3 a5 3c 90 4f 8e bb 28 e2 66 bd 08 19 52 bd
       0.020219542 -0.0043429807 -0.056368023 -0.051293403
000380 b0 e7 99 bb 53 7c 43 bd 73 4a 20 bd 68 9e 26 3c
       -0.0046968088 -0.047725987 -0.0391335 0.010169603
000390 30 48 7f bc 38 4c 00 bd 0d 1c 9f bd 3e a7 93 3d
       -0.015581176 -0.031322688 -0.07769022 0.07209633
0003a0 20 76 bf bb 3c 5e 98 3d e4 15 22 3d 98 1d fe 3c
       -0.005842939 0.07439849 0.039571658 0.03101997
0003b0 56 99 90 3d da 70 9a bd 1a 3e a1 3d 02 1d 5e bd
       0.070604965 -0.07541056 0.07873173 -0.054226883
0003c0 0f b1 1d bd aa 0b 54 bd e0 b0 d0 3b 7c 59 81 3c
       -0.038498934 -0.051768936 0.0063687414 0.01578974
0003d0 b6 ad 12 bd 88 16 b8 3d 3c 4b 5e 3d e0 00 e9 3b
       -0.035810195 0.089886725 0.054270968 0.0071107
0003e0 aa 61 22 bd 84 4c 8d 3d 71 52 a3 bd d5 d9 68 bd
       -0.03964392 0.0689936 -0.07974709 -0.056848366
0003f0 e0 97 3c bb a6 1d 20 bd 00 4b b7 3d f4 5b 6a bd
       -0.0028777048 -0.039090775 0.08949852 -0.0572166

fc2.bias f4 [84]
000000 b0 b2 be 3b 40 fa ad 3d 54 db af 3d f8 33 9b bc
       0.005819641 0.08494997 0.085867554 -0.018945679
000010 78 53 df 3c e7 6a ae bd 10 39 72 bd d6 ca 8a 3d
       0.02726148 -0.08516484 -0.05913645 0.06776969
000020 80 d0 71 3c 24 29 b7 3c 58 5e 29 3c 72 30 16 bd
       0.014759183 0.022358485 0.010337435 -0.036667295
000030 5a 9e 97 3d 86 45 b2 3d 98 8e 1a 3d 32 ce ae 3d
       0.0740325 0.08704667 0.037733644 0.085354224
000040 b4 1d e0 3c 22 4e 8d 3d 8c 50 6f bd de 0e 02 3d
       0.027357914 0.06899668 -0.058426425 0.03175246
000050 b0 fd 84 bd a8 ad 3f bc a1 f8 72 bd 34 b3 fe 3c
       -0.064936996 -0.011699118 -0.059319142 0.03109131
000060 c2 64 ae bd 18 3f db bc 8e 4d 16 bd 50 a4 72 3d
       -0.08515312 -0.026763484 -0.036695056 0.05923873
000070 85 c8 85 bd 1c 50 39 bd ee 76 9c 3d cc b0 1e 3d
       -0.06532387 -0.045242414 0.076398715 0.038742825
000080 6a 29 91 3d 02 d9 ab 3d 6c b1 63 bd 68 ce cb 3c
       0.07087977 0.08391 -0.055589125 0.024878696
000090 60 a5 8b bd 52 1e ff bc 58 ac 73 bc 1a 06 3a bd
       -0.06818652 -0.031142388 -0.014872633 -0.045415975
0000a0 54 7f 9b 3c 68 d0 59 3c 90 f6 9a 3c 2c 0c 4d 3d
       0.018981613 0.013294317 0.018916398 0.050060436
0000b0 d0 03 37 bc 7c ec 95 3d d0 7a d8 bb cc 01 80 3d
       -0.011170343 0.073204964 -0.0066064373 0.06250343
0000c0 6c 9e 91 3d 40 be ac 3d 43 55 34 bd e1 c5 03 bd
       0.07110295 0.08434725 -0.044026624 -0.032171134
0000d0 b8 de 8f bd f2 c0 1b bd 04 0c ac 3d b0 1e 2a bc
       -0.07024902 -0.038025804 0.08400729 -0.010383293
0000e0 c4 2d 44 bd 62 1d 8f bd 67 98 95 bd 3d 4d 4f bd
       -0.047895208 -0.06988026 -0.07304459 -0.05061077
0000f0 24 27 fb 3c 01 b3 46 bd 7d 23 02 bd bb 70 9c bd
       0.030658312 -0.048510555 -0.031772126 -0.07638689
000100 46 df a6 bd 79 7f 58 bd 67 ce ac bd c0 97 c2 bb
       -0.08148055 -0.052855942 -0.084378056 -0.0059385
000110 a3 10 02 bd 84 50 30 bd db 3f 62 bd 9c 52 08 3d
       -0.031754147 -0.043045536 -0.05523668 0.033281907
000120 84 a8 1d 3d 78 e5 8d bc cc 63 11 3d 5c ea a8 3d
       0.038490787 -0.017321333 0.035495564 0.082478255
000130 e4 e5 ef bc 20 76 61 bd 18 e2 67 3d 48 30 a9 bc
       -0.029284425 -0.055044293 0.056612104 -0.020652905
000140 ba 0f 18 bd 34 c1 72 3d e8 67 da 3c bd 11 88 bd
       -0.037124373 0.059266284 0.026660874 -0.06644008

fc3.weight f4 [10, 84]
000000 dc 5f cb 3c 9a 4e 4b 3d ff b0 d6 3d 82 49 57 bd
       0.024825983 0.049635507 0.10482978 -0.052560337
000010 ba e6 61 3d a4 0c 80 bc c4 c9 85 3c 6e 92 d2 bd
       0.05515168 -0.015631028 0.01633156 -0.102818355
000020 14 0b ca bd 3e 47 71 3d 40 ee 86 3a 76 49 48 3d
       -0.09865394 0.058905832 0.0010294393 0.048898183
000030 05 23 86 bd 25 27 ab 3d 18 b6 20 bd a9 08 89 bd
       -0.06549648 0.083570756 -0.039236158 -0.06691105
000040 fb 1b c1 3d de 0b 83 bd de 4e 84 bd 66 60 bf bd
       0.09429165 -0.06398748 -0.06460355 -0.093445584
000050 02 d7 45 3d 28 43 4b bc a0 7c 49 bb b2 2e 0a 3d
       0.04830075 -0.012406148 -0.0030744448 0.03373594
000060 88 d7 fa bc 2c 61 94 3c 6e df 6f bd 18 57 d2 bc
       -0.030620351 0.018112741 -0.05856269 -0.025676295
000070 62 79 7b 3d 6a e4 06 3d 25 1a 95 3d 7f b2 d1 3d
       0.061395057 0.032932676 0.07280377 0.102391236
000080 bb 85 9d 3d 6e 0b 20 bd a7 fb bb bd b2 19 3f bd
       0.07691523 -0.0390734 -0.09178858 -0.046655364
000090 98 1f 01 bc cf 0c d5 3d 28 4d 51 3c 70 af 7b bc
       -0.007881068 0.10402834 0.012774743 -0.015361652
0000a0 55 1f 9d 3d 0a 94 33 3d 33 46 b9 3d b0 93 81 3c
       0.07671992 0.043842353 0.090465926 0.015817493
0000b0 70 bc f0 bb 42 e9 56 3d 00 0e da bb 8f 6c 84 bd
       -0.0073466823 0.052468546 -0.006654501 -0.064660184
0000c0 14 db fa bc 1b ba 4b bd 18 91 05 bc 29 8c 96 3d
       -0.030622043 -0.04973803 -0.008152269 0.07350952
0000d0 0c 11 ac 3c 1b 42 83 bd 0a 4c 0b bd fe 49 8a bd
       0.021004222 -0.06409093 -0.034008063 -0.06752394
0000e0 a4 52 a6 bc 07 96 66 bd 62 ca 0b 3d ec 4d 8e bc
       -0.020303078 -0.05629542 0.034128554 -0.01737114
0000f0 ab 42 78 bd f6 ce 4a 3d 8c c6 a1 3c 0c 79 d6 3c
       -0.060610455 0.04951378 0.019747995 0.026180767
000100 eb 1b 88 3d 72 80 63 3d 3a fd 92 bd a6 62 7a 3d
       0.0664595 0.055542417 -0.071772054 0.061129235
000110 08 6b 97 bd 6b c9 ad bd 1f 54 da 3d fd bb 7a bd
       -0.073934615 -0.08485683 0.10660576 -0.061214436
000120 00 6c 91 3b 1f 5f 83 3d 5e 22 81 bd 8b b9 47 bd
       0.0044379234 0.06414627 -0.06305383 -0.048760932
000130 50 84 53 3c 70 4a 36 bc aa 4b 75 3d 9c cf 89 3c
       0.012909964 -0.011126146 0.059886612 0.016822629
000140 80 9e b1 ba ac 78 84 3c 13 f1 d5 3d 24 75 a0 bd
       -0.0013551265 0.016170822 0.10446372 -0.07834843
000150 8f b5 b4 3d e8 45 60 3c b5 18 a7 3d 24 f0 e3 3c
       0.08823692 0.013688542 0.08159009 0.027824469
000160 e5 d9 73 bd a5 2d dc 3d 62 00 78 3d bb 85 c1 bd
       -0.059533972 0.107508935 0.06054724 -0.09449335
000170 87 4e c2 3d 31 1b ae 3d 71 f7 b0 3d 54 ff fe 3c
       0.09487634 0.0850128 0.08640946 0.03112761
000180 d6 2d 20 3d f8 95 96 bc 9b 3d 9e 3d 70 54 93 bd
       0.039106213 -0.018382058 0.07726594 -0.071938396
000190 d4 9d d5 3c 9f 93 8f 3d 70 f6 ed bc bb 52 8d 3d
       0.026076235 0.07010578 -0.029048175 0.06900545
0001a0 c6 d8 75 3d f8 1a 2a 3c 90 0b 88 3b 65 14 50 bd
       0.060021184 0.010382406 0.004151769 -0.0508007
0001b0 20 ad 9e bb 60 3c d8 bd 86 29 5f 3d ba 7c 59 3d
       -0.0048424155 -0.105583906 0.05448296 0.053097464
0001c0 32 8b 09 3d 86 f3 46 bd 9b 4f c1 bd cc f2 85 bd
       0.033580013 -0.048572086 -0.09439012 -0.065404505
0001d0 7c c0 f3 3c d2 88 b4 bd d5 b3 9f 3d 13 7d d3 3d
       0.02975487 -0.08815159 0.07797972 0.103265904
0001e0 7b cf 84 3d fc 95 0b bd e8 17 47 3c 28 70 42 bc
       0.06484886 -0.034078583 0.012151696 -0.01186756
0001f0 0c 4d 91 3c d0 29 db 3b e5 ec a9 3d 35 b5 b0 3d
       0.017736934 0.006688334 0.08297137 0.086283125
000200 f7 e9 b1 3d 92 85 77 3d b9 a0 8b 3d b3 5c 96 3d
       0.086872034 0.060430117 0.06817765 0.073419
000210 c9 37 ad 3d f2 15 33 3d 9d 68 8e bd 79 f0 c7 3d
       0.08457906 0.0437221 -0.06953547 0.097626634
000220 dc e9 b3 3c 9b de 86 bd 78 2e 22 bc 26 3c 25 3d
       0.021962099 -0.065854274 -0.009898774 0.040340565
000230 be 0d b6 bd 18 f6 ad bd 36 59 36 bd 8f 95 b4 3d
       -0.0888934 -0.08494204 -0.044518672 0.088175885
000240 4a f5 27 3d 8e 26 65 3d f2 49 3e 3d 33 c7 c2 3d
       0.04100541 0.05594497 0.04645724 0.095106505
000250 8b 63 c7 3d 65 6d d0 3d e3 28 8c 3d 56 d5 59 3d
       0.09735783 0.10177115 0.06843736 0.05318197
000260 be 5f 2c 3d 69 75 b5 3d 65 62 d6 bd c2 0f 54 3d
       0.042083494 0.08860285 -0.10467986 0.05177284
000270 a7 13 da 3d a2 23 1c 3d 40 67 23 3b e4 81 11 bd
       0.1064828 0.03811992 0.0024933368 -0.035524264
000280 2c b8 e3 3c 99 d9 53 bd ee 77 20 3d 00 ec be bc
       0.02779778 -0.05172119 0.039176874 -0.023305893
000290 ba 99 28 3d b4 16 8d bd c0 79 95 bd 9e 20 b6 bd
       0.04116223 -0.06889096 -0.072986126 -0.0889294
0002a0 dc 18 ad 3c 47 b0 80 3d 15 f7 8d 3d 6c 6c ad bd
       0.021130018 0.06283622 0.06931893 -0.084679455
0002b0 5e ff 1c 3d ec 10 f3 3c a9 04 8e 3d b4 6c 90 bd
       0.038329475 0.029671155 0.069344826 -0.070519835
0002c0 ca 7a 15 bd 94 40 99 bd 70 1c f9 3b 62 83 ae bd
       -0.036494054 -0.074830204 0.007602267 -0.08521153
0002d0 5d 19 a8 3d e3 09 c2 bd 18 b1 04 3c bc f4 81 3c
       0.08207963 -0.09474542 0.008098863 0.015863769
0002e0 a0 17 bd bb be 5b 9d bd d6 41 3c 3d ad 1e b5 3d
       -0.0057706386 -0.07683514 0.045961224 0.088437416
0002f0 40 73 1b 3b b7 94 90 3d 51 2f c7 bd 08 46 5d bc
       0.0023719817 0.07059615 -0.09725822 -0.013505466
000300 d8 69 8a bc fd d7 be 3d 34 56 dc 3c 1a c5 b8 bd
       -0.016896173 0.0931854 0.026896574 -0.09021969
000310 3c 86 b7 3c 08 96 53 3c d0 5f 37 3c d6 c8 73 3d
       0.022402875 0.012914188 0.011192277 0.059517704
000320 66 44 5f 3d e4 24 d7 bc 16 ac 2b 3d 80 e1 65 bc
       0.05450859 -0.026262708 0.04191216 -0.014030814
000330 d4 fe 93 bd 79 f0 a7 3d 12 42 25 3d 3b 76 a4 3d
       -0.07226339 0.082001634 0.040346213 0.08030363
000340 a6 b6 94 bd 40 0b e1 3a de a9 9c bd 4e af 08 bd
       -0.072614 0.001716949 -0.07649587 -0.03337031
000350 f1 a7 b2 3d b4 df d9 bc 12 87 28 3d 36 1d 3f 3d
       0.087234385 -0.026595928 0.041144438 0.046658717
000360 74 39 9b bd a1 7f 9a 3d 81 a1 ab bd 7b e3 b2 3d
       -0.07579318 0.075438745 -0.08380414 0.08734795
000370 3c 95 d3 bc 66 c7 d7 bd d0 06 ab 3b 8f dd d5 3d
       -0.025827996 -0.10536079 0.005219318 0.104426496
000380 6a 86 1d 3d 88 a5 f0 bc 84 68 ca 3c 1a 61 32 3d
       0.038458265 -0.029375806 0.02470804 0.043549635
000390 dd 00 c7 bd 5a 39 bd bd d6 e0 b4 bd ed 06 cb 3d
       -0.097169615 -0.092394546 -0.088319466 0.0991343
0003a0 e8 d2 87 bd 92 d2 50 bd b2 55 67 3d 4b 3f 71 bd
       -0.06632024 -0.050982065 0.05647821 -0.05889825
0003b0 b4 74 82 3c 63 f4 8f 3d 2c a9 ed 3c 80 d6 3f 3a
       0.015924789 0.07029035 0.029011331 0.0007318035
0003c0 87 f8 97 bd 4d 27 7e bd 60 2b df bc 75 b0 cf 3d
       -0.0742045 -0.0620492 -0.027242362 0.101410784
0003d0 44 55 e8 3c ee d2 12 3d e0 03 30 3c d0 91 84 3b
       0.02836097 0.03584569 0.010743111 0.0040457025
0003e0 c9 fc c3 3d c4 62 b5 3c 6a d1 0c 3d b2 61 0c 3d
       0.09569699 0.022141822 0.0343794 0.034272857
0003f0 f6 61 72 3d a1 bc d6 3d ea e4 0e bd d4 1c a5 bc
       0.059175454 0.10485197 -0.03488628 -0.020155348

fc3.bias f4 [10]
000000 32 a1 14 3d 19 4e d9 bd dd f2 af 3d f5 ec 97 3d
       0.03628654 -0.10610599 0.08591244 0.07418243
000010 a0 f9 c5 bc b1 0d c7 bd 86 75 65 3d 04 1d f7 bc
       -0.024166882 -0.09719408 0.056020282 -0.030165203
000020 3c c0 e5 3c 12 ed 9a bd
       0.028045766 -0.07564749
